model.pth (torch_old, 524445 bytes, 7 tensors)

embed.weight f4 [57, 100]
00000000: 0000 0000 0000 0000 0000 0000 0000 0000
00000010: 0000 0000 0000 0000 0000 0000 0000 0000
00000020: 0000 0000 0000 0000 0000 0000 0000 0000
00000030: 0000 0000 0000 0000 0000 0000 0000 0000
00000040: 0000 0000 0000 0000 0000 0000 0000 0000
00000050: 0000 0000 0000 0000 0000 0000 0000 0000
00000060: 0000 0000 0000 0000 0000 0000 0000 0000
00000070: 0000 0000 0000 0000 0000 0000 0000 0000
00000080: 0000 0000 0000 0000 0000 0000 0000 0000
00000090: 0000 0000 0000 0000 0000 0000 0000 0000
000000a0: 0000 0000 0000 0000 0000 0000 0000 0000
000000b0: 0000 0000 0000 0000 0000 0000 0000 0000
000000c0: 0000 0000 0000 0000 0000 0000 0000 0000
000000d0: 0000 0000 0000 0000 0000 0000 0000 0000
000000e0: 0000 0000 0000 0000 0000 0000 0000 0000
000000f0: 0000 0000 0000 0000 0000 0000 0000 0000
00000100: 0000 0000 0000 0000 0000 0000 0000 0000
00000110: 0000 0000 0000 0000 0000 0000 0000 0000
00000120: 0000 0000 0000 0000 0000 0000 0000 0000
00000130: 0000 0000 0000 0000 0000 0000 0000 0000
00000140: 0000 0000 0000 0000 0000 0000 0000 0000
00000150: 0000 0000 0000 0000 0000 0000 0000 0000
00000160: 0000 0000 0000 0000 0000 0000 0000 0000
00000170: 0000 0000 0000 0000 0000 0000 0000 0000
00000180: 0000 0000 0000 0000 0000 0000 0000 0000
00000190: 1500 f33f 6f1b 62bf b04e 8abe b565 05bf
000001a0: 04f6 a4bf 1d01 ddbc 30aa 483f de15 543f
000001b0: df81 373f c78a 7a3d 019e c43d 47d9 153f
000001c0: 1a49 15bf d19e 6abf 35e7 c83f 21b4 a2bd
000001d0: 8873 563f 952d 3dbf 0e35 1ebf 8b9a a73e
000001e0: cd02 17be 7c9c d3be 2ba6 a33f cb95 2bbe
000001f0: 1ab0 bebe fcbf 0fc0 ae9f 74bf 57c5 23bf
00000200: 9e30 273e 5aac 113f 30a5 7e3f 7d09 693e
00000210: a5c2 2dbd 476a 1f3f f17a 083f a99f 15bf
00000220: 433d 2abf 06a2 c9bf be21 15bf 3a78 0cbe
00000230: fe9b ec3e 563a 1bbf 0780 123f 2f03 47be
00000240: 91e9 b23f 723b 85bf ee5f 413f 4257 c23e
00000250: dc7e 5cbf 4495 013f 5633 0a3e 5b00 8e3d
00000260: ddc8 ee3e 7a46 99bf 7bcf 1f3c 8864 7abf
00000270: 6135 533f 82ae 813f be22 fcbf 8518 1f40
00000280: 6dce 72bf e0af 833e f04b 53bf 1d5a 0ec0
00000290: 8963 00be a7fe 1140 c5c1 4b3e 85b7 6abf
000002a0: b04c b73e 65a2 793d 63fc 843f 52f8 40bf
000002b0: 91ed b23f 1867 533e 0161 373f dc64 61be
000002c0: 6f3d abbf f64c e63e 1530 b23f deee a93f
000002d0: 1285 99bf a7be fa3e d0df c33e 0c11 873f
000002e0: 6f2e 893f e6ee afbf 5a54 d5bf c4ff 013f
000002f0: 4ccf da3f c21d 4b3e f9ab d83e e5ff c93e
00000300: f02c a9bf d407 1e3f ce05 00c0 3144 c43f
00000310: aeee a5bf ccd1 b1be d035 e3bf 3c35 0c3f
00000320: 61d9 c7be 3ee9 ae3f e524 b1bf 4bfb d7bf
00000330: 31e9 d6be b2ac 9e3f 7b1b a8bf fe88 9dbf
00000340: 562f c23c ac96 453e 81e0 b3bd 835a ba3f
00000350: 3e34 89bf c4cb 853f 398f 12c0 738f e0bf
00000360: 8130 50bf 8149 853f 4e0d 91bf 99ea 8ebf
00000370: 0fd3 393f bf99 a9bf 6a97 1b3e d796 de3e
00000380: 31e3 28bf 6237 6dbd 348f 0fc0 6c32 b2bf
00000390: fcd1 3940 fb71 42bf b3c8 0140 358f 013f
000003a0: 50d7 853e f996 483f d89e b23f d14b fcbe
000003b0: f1d0 fe3f e03f 4d3e 945c 7abf d91f 883d
000003c0: 52cc 743f 12b0 b3bf 52ba efbf acd4 7e3e
000003d0: b2c8 8abf b91e 413f 65d0 ca3c fefe bfbf
000003e0: 96bf 263f 875d a33f 25fa 633f 6812 47be
000003f0: 71fe d13e fcce 3b3f 0372 053f e57e 66be
0.0 0.0 0.0 0.0 0.0 0.0 0.0 0.0
0.0 0.0 0.0 0.0 0.0 0.0 0.0 0.0
0.0 0.0 0.0 0.0 0.0 0.0 0.0 0.0
0.0 0.0 0.0 0.0 0.0 0.0 0.0 0.0
0.0 0.0 0.0 0.0 0.0 0.0 0.0 0.0
0.0 0.0 0.0 0.0 0.0 0.0 0.0 0.0
0.0 0.0 0.0 0.0 0.0 0.0 0.0 0.0
0.0 0.0 0.0 0.0 0.0 0.0 0.0 0.0
0.0 0.0 0.0 0.0 0.0 0.0 0.0 0.0
0.0 0.0 0.0 0.0 0.0 0.0 0.0 0.0
0.0 0.0 0.0 0.0 0.0 0.0 0.0 0.0
0.0 0.0 0.0 0.0 0.0 0.0 0.0 0.0
0.0 0.0 0.0 0.0 1.89844 -0.8832311 -0.2701316 -0.5210832
-1.2887578 -0.02697807 0.78384686 0.82845867 0.7168254 0.061167505 0.09600449 0.58534664
-0.5831467 -0.91648585 1.5695559 -0.07944513 0.83770037 -0.7389768 -0.61799705 0.32735094
-0.14747162 -0.41330326 1.2785085 -0.1675636 -0.3724373 -2.2460928 -0.9555615 -0.6397299
0.1632714 0.5690361 0.99470806 0.22757526 -0.042421956 0.6227154 0.53312594 -0.5844675
-0.6649973 -1.5752571 -0.5825461 -0.13717738 0.46212763 -0.6063589 0.57226604 -0.19434808
1.3977529 -1.0408766 0.75537 0.37957197 -0.8613107 0.50618386 0.13496146 0.069336616
0.46637622 -1.1974633 0.009754057 -0.9780965 0.82503325 1.013138 -1.9698102 2.4858716
-0.9484623 0.2572012 -0.82537746 -2.22425 -0.1253797 2.2811677 0.19898136 -0.9168628
0.35800695 0.060945887 1.0389522 -0.75378907 1.397875 0.20644796 0.7163239 -0.22011131
-1.3378123 0.44980592 1.3920923 1.3276021 -1.1993735 0.4897358 0.38256693 1.0552077
1.0717295 -1.3744781 -1.6666367 0.5078089 1.7094512 0.1983557 0.42318705 0.39453045
-1.3216839 0.61730695 -2.0003543 1.533331 -1.2963464 -0.34730375 -1.7750797 0.5476873
-0.39033034 1.366493 -1.3839384 -1.6873564 -0.41974786 1.2396452 -1.3133386 -1.2307432
0.023704212 0.19295758 -0.08783055 1.4558872 -1.0719068 1.0452809 -2.2899916 -1.7543777
-0.8132401 1.0413057 -1.1332185 -1.1165344 0.72587675 -1.3250045 0.15194479 0.43474457
-0.65971667 -0.057914145 -2.2431154 -1.3921638 2.9034414 -0.7595517 2.0278747 0.5060914
0.26140833 0.78355366 1.3954725 -0.49276593 1.9907514 0.20043898 -0.97797513 0.066466995
0.9562427 -1.4038107 -1.8728735 0.24885815 -1.0842497 0.75437504 0.024757573 -1.4999692
0.65136087 1.2762917 0.89053565 -0.19440615 0.41014436 0.7336271 0.52127093 -0.22509344

lstm.weight_ih_l0 f4 [512, 100]
00000000: 1d71 853d 66fc 2bbd 7adb a73c 809d 8c3d
00000010: bccc 98bd a10f 1e3d 4e70 133d d201 83bd
00000020: 5a1b a13d af49 99bc 01ff 4dbc c0c6 21bd
00000030: 73b3 a5bb 2df0 03bb 309c c53d b4de 18bc
00000040: 38eb 603d 1382 41bd f673 44bd b850 9bbc
00000050: 8876 43bd 62e4 c1bc 7843 17bd 7e4a 6dbd
00000060: 7739 7d3d 2622 84bb d431 af3b c903 5fbd
00000070: 7e73 543d 843c 74bd 08a5 54bd 0288 1fbd
00000080: 7c75 6abc 8d96 b93d abaa 92bd e74f f23b
00000090: 653f 1a3d e02e a43c 9247 aebb d7f7 47bc
000000a0: 0ba0 56bd ca0f 25bd 762a 1bbd 659f 4cbc
000000b0: 5c17 ae3d 4718 1dbd 7fb8 ba3d 8977 9abd
000000c0: ed8a 0d3d 474b 1cbd 3d71 843d 5cf0 00bd
000000d0: dd3c 953c a7f9 30bd 4ce7 1d3d 719e 543c
000000e0: d119 9bbd a51c 79bc 01a9 6c3d 3ef1 c5bc
000000f0: 555e 70bd c5f8 ae3c 46bf 8bbd 0c75 44bb
00000100: 0ec0 473d f53f 2ebd d87a 54bd 482a 04bc
00000110: c3ae a1bb f524 6c3d 3e87 a6bc 5528 133c
00000120: 9800 ec3c d837 0f3d b816 2d3d a565 853c
00000130: cedb 98bd bc65 b4bd 20d5 803c 5a0a 7ebd
00000140: 73ff debc c2f6 3cbd 56b2 ccbc b12a 793d
00000150: d40a b2bc 07c6 4fbd 8ca7 31bd 86fe 453d
00000160: cd0f f9bc 4872 793d 54f5 f43c e33d 663d
00000170: 03c4 a73d 8850 4a3d b646 babb 3178 df3c
00000180: 6f2c 72bd 56cf dd3b 42e4 39bd 33c2 c4bd
00000190: 0006 cfbd b933 0dbd 7a5c 27bd 6fe5 5b3d
000001a0: a9e8 bb3d c59c 293d 4d59 75bd c29d b4bd
000001b0: 2a4a 4fbd 8791 8f3d 02ec 1e3d 96bc 5e3d
000001c0: 3feb 5ebd ec2b 6bbd 813b 303c 8e0c cabd
000001d0: 6bca 04bd d723 a43d 5fd5 4e3d 70ad bf3c
000001e0: 9e6e b43d 138b 4bbd d114 b8bd bb2d c8bb
000001f0: 88e2 9dbd e324 91bd 4dff 4a3c 9065 993d
00000200: 36a1 e43d 0d9b aebd aec8 b0bc 9be1 bc3b
00000210: 1bc4 163d d5e5 d2bd 5528 84bd 2750 9fbd
00000220: 4776 59bd 0a43 94bd a99e c6bd a726 a7bd
00000230: 823f a33d 4330 80bd cc82 393d 24b7 57bd
00000240: a0af 3c3d 0df5 bdbd d333 5bbd 6d21 763c
00000250: 54fd 68bd e007 14bc 6e7e 9d3c 79b6 9bbd
00000260: 7f97 fbbb 9290 6a3d af6d 82bd 842c 0d3c
00000270: 72b6 7f3d d207 f6bb fe3e a73c 4a2c 953d
00000280: 7345 13bd 025f 8c3d 0af5 4fbd e63b 14bd
00000290: 0c78 c33c 2a85 b8bb 0c45 9abc 42ef d7bb
000002a0: b86b c8bc ccc5 a53d 4380 063d b9a7 dcbc
000002b0: 0a13 d9bd dc66 99bc c820 f6bc 2b34 e83b
000002c0: 899b 6a3d 25f8 11bd 8650 f33c 888a 8bbc
000002d0: e489 56bd de56 ddbd c668 883d 380c 8fbb
000002e0: ace0 6c3d b484 a0bd 8bb2 15bd ba93 73bd
000002f0: fa44 2fbc 1415 d93d 6073 fa3c 64f7 aabd
00000300: 1420 cf3c 59d2 163d 4129 a13d 242a 9b3d
00000310: 91bb a73c b166 79bc 30f7 62bd 5283 98bd
00000320: 9a88 8fbd 5f1d 8dbd 6f55 033d b224 aa3d
00000330: 9dcc 623d 4729 4fbd 91b1 c33d 998e cdbd
00000340: 142f 713c def4 19bb 9ec9 2b3d de66 dc3c
00000350: 6fb8 87bd 2f15 a03d d4da 54bc c792 f73c
00000360: 0af1 8dbd 1a9c 033d 38e7 89bd 1676 34bb
00000370: 4a4a b1bd 5c22 f73c 4b0c 193d 8594 e4bc
00000380: e004 b6bd f5b5 6d3c 96db 933d d06e b1bd
00000390: 5bcb 2dbd f0a5 183c 73e6 993c d56b aa3d
000003a0: c2af 843d a419 69bd 7110 5dbd 5cca 023d
000003b0: 6f68 a9bb da9b 59bd 335c 263d 5706 413b
000003c0: fd5a 82bd 422a 283d 8655 afbd 1c43 6b3d
000003d0: df58 e6bc ea09 05bd 61e4 22bd bc09 bfbc
000003e0: 3730 72bd 85e0 a33d a754 dc3d 3fab 7f3c
000003f0: 813b 953c 0fa3 8a3d 0681 073d 1073 4ebd
0.06515715 -0.041988753 0.020490397 0.06865978 -0.07460925 0.038589124 0.035995774 -0.063968316
0.07866545 -0.018711893 -0.012573005 -0.039496183 -0.0050567924 -0.002013217 0.09648931 -0.00933044
0.054911822 -0.04724319 -0.04796215 -0.018959388 -0.047720462 -0.023668472 -0.036929578 -0.05793237
0.06182238 -0.004032391 0.005346516 -0.05444697 0.051867954 -0.059628025 -0.0519152 -0.038948067
-0.014310237 0.090619184 -0.071614586 0.007394779 0.037658114 0.020041883 -0.0053185904 -0.012205086
-0.052398723 -0.04029826 -0.03788229 -0.0124891745 0.08500549 -0.03835323 0.09117221 -0.07542331
0.034556318 -0.038157728 0.06466911 -0.031479225 0.018217498 -0.043206837 0.03855066 0.0129772285
-0.075732835 -0.015204583 0.057778362 -0.024162885 -0.058683712 0.021358857 -0.06823592 -0.0029976992
0.048767142 -0.042541463 -0.051874965 -0.008066721 -0.0049341633 0.057652432 -0.02032816 0.008981784
0.028808877 0.034965366 0.042257994 0.01628382 -0.074637994 -0.08808467 0.015726626 -0.06202159
-0.027221417 -0.046133764 -0.024987381 0.06083173 -0.021733679 -0.050725963 -0.043372676 0.048338436
-0.030403042 0.060900003 0.029902138 0.056211364 0.08191683 0.049393207 -0.005684699 0.027278991
-0.059124406 0.006769101 -0.0453837 -0.09607353 -0.10108566 -0.034473155 -0.040859677 0.0536856
0.09175236 0.041409273 -0.059899617 -0.088191524 -0.050607838 0.07010179 0.038799293 0.05437907
-0.054423567 -0.057414934 0.010756374 -0.09865676 -0.032419603 0.080146484 0.050496455 0.023398131
0.08810161 -0.04969318 -0.089883454 -0.006108967 -0.07709223 -0.07087114 0.01238997 0.07490075
0.11163561 -0.08525667 -0.021580067 0.005764199 0.036808114 -0.10297743 -0.06453005 -0.0777896
-0.053091314 -0.07239349 -0.09698231 -0.08161669 0.079710975 -0.06259205 0.045290753 -0.05266489
0.046065927 -0.09275255 -0.05351622 0.015022618 -0.056882218 -0.009035081 0.019225325 -0.07603163
-0.007677972 0.05726678 -0.06368577 0.00861657 0.062429853 -0.0075082565 0.02041578 0.07283838
-0.035954904 0.06854059 -0.050770797 -0.036189936 0.023860954 -0.005631109 -0.018831752 -0.006589801
-0.024465427 0.080943674 0.032837164 -0.026935445 -0.105993345 -0.018725805 -0.030044928 0.007086297
0.057277236 -0.03563704 0.029701483 -0.01703383 -0.052377596 -0.10807584 0.06660609 -0.0043654703
0.05783145 -0.07837811 -0.036547225 -0.059467055 -0.010697598 0.105997235 0.030572593 -0.08347967
0.02528385 0.036821697 0.07869197 0.07576397 0.02047518 -0.015222237 -0.055411518 -0.07446922
-0.070084766 -0.06890368 0.032063898 0.0830778 0.055370916 -0.050576475 0.095553525 -0.10036964
0.014720697 -0.00234919 0.041940324 0.02690452 -0.06626975 0.078165404 -0.012991626 0.030221356
-0.0693074 0.032131292 -0.067335546 -0.0027536205 -0.08656748 0.030167751 0.03736524 -0.02790285
-0.088876486 0.014508714 0.07219617 -0.08663714 -0.042430263 0.009316906 0.018786645 0.083213486
0.06478836 -0.05690922 -0.053970758 0.031931266 -0.00516992 -0.053127147 0.04061527 0.0029453242
-0.06365011 0.041055925 -0.08561234 0.057437047 -0.028118549 -0.032480158 -0.03976858 -0.023320071
-0.059128013 0.08001808 0.10758334 0.015604793 0.01821685 0.06769382 0.03308203 -0.0504027

lstm.weight_hh_l0 f4 [512, 128]
00000000: 8e68 2e3c 19b9 3f3d 00a3 e2bc e98f 94bd
00000010: 2cd3 a4bd 57b5 80bd aa7b d0bc afbd 053c
00000020: da66 3fbc ab4e 883c 9dfb 8a3d ae97 77bd
00000030: f008 ca3c 31cc e3bb a5d7 a33d 2387 933c
00000040: 17f2 343b db97 fc3c fb79 0fbd 0d9d 92bd
00000050: 2b1f 8abd 92e5 5f3d 6be5 8e3d c406 0b3d
00000060: e08e 543d e4e6 acbd d826 4a3d e93d 8dbc
00000070: 7019 2a3d 1bd5 fbbb 628b 8d3d 4990 003d
00000080: e1da 90bc 4d71 193d 0429 9bbd 3440 153d
00000090: 3e1e 183d 86c1 fcbc a0a5 e83c 5b4f b73d
000000a0: 39d6 3ebd 6791 213c 48a0 95bd 80ec efbc
000000b0: f1f1 ecbc 1e1c b63c 7d62 78bd 0de2 00bd
000000c0: 2075 cf3c d4f2 3ebc a03b 203d 1194 e83c
000000d0: e53a ffbc 150d 65bd 4fdc 34bd 4a09 ae3d
000000e0: b70d c1bc b518 bcbc a184 3bbc fc62 0b3c
000000f0: 9970 1cbd 37af 6a3c eb83 a1bd 5641 943d
00000100: 200a a4bd d261 093d 0531 603d fecd 8c3c
00000110: 6e0c 953d 2239 183c e91c 89bd 8a65 6b3d
00000120: f599 8b3c be21 993d 5094 03bd 6a72 be3c
00000130: ce92 ad3c f7cc f6bc 79b3 91bd 3a8d 923d
00000140: eb4b 43bd da7d 843d d9cc 9dbd 3f73 35bd
00000150: 4048 6bbd 5169 843d e53b b23c e3c0 103d
00000160: 1b47 07bc d048 5ebc 0442 58bd 4ce5 3f3c
00000170: 4b5f 9c3d 8637 883d a2c9 2ebc 7ece b03c
00000180: d083 ba3d e3e8 8d3c b0ea 00bd e850 8fbc
00000190: f157 9f3d a3bf f7bb e095 ecbb 23cc 763d
000001a0: 7362 ad3c 50c5 a4bd ff90 8f3b f501 02bd
000001b0: d9b8 61bd 99b6 f9bc c466 483d da73 01bc
000001c0: cd2f 833d 5fe7 823d 48d4 21bc 9cf8 8bbc
000001d0: 1c78 9bbd 4077 c3bb 1581 423d 3d56 8d3d
000001e0: 3888 03bc 76a8 4abd 25a1 93bd b0bf 09bd
000001f0: 63e2 e4bc 221f a4bd 7c6d 1ebd ead6 edbc
00000200: 02ea c1bd 0a6f 7dbd f4fc adbd 3625 8bbd
00000210: 2769 79bd 7a3b cdbc dc0e afbd ca5d 46bd
00000220: 910d 98bd 8645 353d 6397 afbd 4f9a f7bb
00000230: e544 213d 088b 82bd 97eb cfbc 494f 16bd
00000240: f82f 8fbd 5f7f 89bd c16a 50bc 835d 3b3d
00000250: ee9c 963d 7857 703d 96cc 953d 9fb0 01bd
00000260: d3c9 dc3c 8f09 13bc 08fd 6ebd 53ba 17bd
00000270: ac16 823c 5b9d 303c a4f9 4d3d 0874 813d
00000280: 6ca8 993d e6fe 7d3d 72e8 823d 3e28 80bb
00000290: 9a96 923d ffd4 98bd be60 d9bd 14f4 8a3d
000002a0: eeea 9abb baa1 463c ca9c cdbc 1d10 20bc
000002b0: d5ed d63d 0f3e 1dbd 607d 2f3d 61ca 1c3d
000002c0: 7fcc 4bbd 25fd 6bbc acd5 073d 6d1a cd3d
000002d0: 890b 083d e6a9 683d 7a4c 983d 7ae6 2abc
000002e0: f753 bc3d 51fe d53d ff56 d4bb 62a8 033d
000002f0: 77f4 d5bc 890a e1bc 49cf c8bb e096 98bd
00000300: fc0e 44bd 00da 84bd 1d2a a63c 6fb1 45bd
00000310: 1488 5e3d 5057 8bbd 6a5b 49bd f5eb 87bc
00000320: 4749 adbd 11ba ab3d 726c a63d 4848 86bd
00000330: edf3 883d 70a1 d8bd 8121 b83d 6f37 7d3d
00000340: 50b4 43bb c0ba 7b3a c9d8 ecbb 8398 96ba
00000350: c858 273c e01f 743d 19ae a63d 1120 b33b
00000360: 72f0 1cbd eb05 98bd ecad 97bb 4e74 223d
00000370: e538 773d ad06 dfbd 1ad6 163d c741 3ebd
00000380: 8ac0 873d 982c 77bc b1f3 293d 6898 a73d
00000390: d7f0 4dbc f283 e2bc a90b 1cbd 2a12 eebc
000003a0: 880c 88bd 0858 65bd 79eb ab3c cde6 013b
000003b0: df6f 5fbd 4409 a93c 64d8 36bd bcc8 2c3d
000003c0: 7b6d 4ebd b692 86bd 339f 813d 9ec8 ac3a
000003d0: eb48 0cbc 3c4d 623d 5686 113d d546 a2bc
000003e0: 08eb a63b 1460 a23c 8bb2 97bb ea42 c7bd
000003f0: fe09 91bc e000 d8bd 60ff 743d 7bb1 d9bb
0.010645045 0.046807382 -0.027665615 -0.07254011 -0.0804809 -0.06284588 -0.025449593 0.0081629
-0.011682237 0.016639074 0.06786273 -0.060447387 0.024662465 -0.0069518317 0.08000115 0.018008774
0.0027610117 0.03083413 -0.03502844 -0.07158861 -0.06744226 0.054662295 0.06977352 0.033942
0.05189407 -0.084424764 0.04935345 -0.017241435 0.041528165 -0.0076853163 0.06911351 0.0313876
-0.017682495 0.037461568 -0.075761825 0.036438182 0.037138216 -0.030853998 0.028399289 0.08950683
-0.046591017 0.009861327 -0.07305962 -0.029287577 -0.02892396 0.022230204 -0.0606408 -0.03146558
0.025324404 -0.011654574 0.039119363 0.028390916 -0.031156013 -0.05592068 -0.044155415 0.084978655
-0.02356611 -0.022961 -0.011445195 0.008507486 -0.03819332 0.014324001 -0.078864895 0.07239024
-0.08009744 0.033540554 0.05473425 0.017188068 0.072777614 0.009290965 -0.06694967 0.057469882
0.017041186 0.07477139 -0.032123864 0.023247916 0.021188166 -0.030127032 -0.0711431 0.07155843
-0.047679823 0.06469317 -0.07705087 -0.04429936 -0.05744195 0.064654 0.021757076 0.0353402
-0.008256699 -0.013567165 -0.052797332 0.0117123835 0.07635363 0.06651215 -0.01066819 0.021582838
0.091071725 0.017322963 -0.031473815 -0.017494634 0.07780445 -0.0075606867 -0.007220015 0.060253274
0.021165108 -0.08045447 0.0043812986 -0.031740148 -0.055107925 -0.030482577 0.04892613 -0.007901156
0.06405602 0.06391787 -0.009877272 -0.01708632 -0.075912684 -0.0059651434 0.047486383 0.06901214
-0.008028083 -0.049477063 -0.0720847 -0.033630073 -0.02793998 -0.080137506 -0.03867863 -0.029033143
-0.094684616 -0.061873473 -0.084955126 -0.06794207 -0.060891297 -0.025052775 -0.08547756 -0.048429288
-0.074244626 0.044255756 -0.085737966 -0.007556237 0.039372344 -0.06374174 -0.025380893 -0.036696706
-0.06991571 -0.06713747 -0.012720765 0.045743477 0.07354151 0.058677167 0.07314412 -0.03166258
0.026951706 -0.008974447 -0.05834678 -0.037042927 0.015879951 0.010779704 0.050286904 0.06320959
0.07502827 0.06201067 0.06391992 -0.0039110472 0.07157631 -0.07462501 -0.10614155 0.067848355
-0.004727713 0.01212352 -0.025099177 -0.009769467 0.104945816 -0.03838926 0.042844176 0.03827894
-0.04975557 -0.014403616 0.033162758 0.10014806 0.033214126 0.056802653 0.07436462 -0.010430926
0.091957025 0.10448898 -0.0064800973 0.032143004 -0.026117546 -0.027470844 -0.006128226 -0.07450652
-0.047865853 -0.06486893 0.020283753 -0.048264917 0.054328993 -0.06803763 -0.049159445 -0.016592005
-0.08461242 0.08385099 0.08126153 -0.06556755 0.0668715 -0.10577667 0.08990765 0.061820444
-0.0029862113 0.0009602718 -0.0072279912 -0.0011489544 0.010214038 0.05960071 0.08138675 0.005466469
-0.038315244 -0.07423004 -0.0046288874 0.039661698 0.060356993 -0.10889945 0.036825277 -0.04644945
0.06628521 -0.015086316 0.041492168 0.08183366 -0.012569628 -0.027650807 -0.038097057 -0.029061396
-0.06643015 -0.055992156 0.020986306 0.0019821406 -0.054550048 0.020634301 -0.04463996 0.042183623
-0.050397377 -0.06570952 0.06329193 0.0013182347 -0.008562307 0.055249438 0.035528503 -0.019809166
0.005093936 0.019821204 -0.0046294383 -0.0972956 -0.01770496 -0.10547042 0.059813857 -0.006643472

lstm.bias_ih_l0 f4 [512]
00000000: 7a80 9bbc d7b4 ccbc db87 88bd e2bd 7b3d
00000010: 483c 1bbd b816 07bd b0d7 d53d 6835 c53d
00000020: a41b 8a3d 3703 733c 6000 de3c ac0b d3bc
00000030: aebf a63d 8260 35bd 80c1 413d b773 7cbb
00000040: 859f 893d 236d 84bd 3eb9 1e3d 8e78 89bc
00000050: 62b2 513a a4f4 c7bc 5f4d c83b 744e 6c3d
00000060: b191 d13d dfc0 153d 6d81 ad3d f9e4 9a3c
00000070: 8925 26bd a0d9 b43c 963b e43d a4c8 dd3d
00000080: 97a4 18bd ba56 8d3d 4f63 f43d fa0b eb3d
00000090: 4414 cbbc 23c2 2f3d cd9f 993d d26e a9bc
000000a0: 696c 2e3d 5a64 f83d 7e9d 8a3d 803f ce3c
000000b0: de6c 453b 944e e13d 2a79 72bd 60b3 1bbc
000000c0: 7651 e13c b885 8dbc 8ca5 953d 2362 cf3d
000000d0: 4a9d 8c3d 84b1 95bc cd77 2fbc 4905 9ebc
000000e0: 7138 903d 0b46 53bd 86a6 dc3c 7410 4e3d
000000f0: d360 393d 1336 b0bc 0845 87bc c69b 5ebc
00000100: a095 a03d 96e0 f0bb 24bd d63c 24ea 1a3d
00000110: 5653 90bd 995f ab3c ffe2 563c 1db2 953d
00000120: 4ce0 7c3d 0967 e43d 185f d0bc 3c8d 473d
00000130: c9c7 efbb b713 a33b e1c7 0e3b d10d 63bd
00000140: 7075 d53c d808 363d f31d 1ebd a167 943d
00000150: 9488 ce3c 8be3 6ebd dd1c 913d 907f 253c
00000160: 46ba 573c c097 a2bb 5c67 b73d 61f2 853d
00000170: 77c5 bebc 7ab8 c03d 5c9f cebc 0dec 85bb
00000180: 5c54 b43d ee7f fd3d 8043 163d c362 34bd
00000190: c1d5 a43d 8300 353c ded9 b3bc 1dd3 ef3d
000001a0: 6971 26bc e06c b93c 4804 303d b809 d53c
000001b0: 580b 003d 2cc7 eabc f1d3 b53d 55ee 293a
000001c0: 6a3e 4fbd 903a 573b bf9f c13d d678 d53d
000001d0: d852 723c bf82 373d dded eb3d 8976 9c3d
000001e0: 58b0 d93d f121 6e3d 364f 54bc d435 08bd
000001f0: c29c 45bd c3c2 683d 738e 983d fd6d 8c3d
00000200: 0d01 3dbd 7300 e73d 812c 4f3d 41e7 68bd
00000210: eba0 8d3d 34d3 dfbc f40c f03c 51c4 703d
00000220: 806d 52bd 46cd cd3d ac9e 1e3d e383 7cbd
00000230: a000 8f3b dc1d d33c f0f6 163d 9504 163d
00000240: 905c 9f3d e428 023d 60fd ed3c f500 dc3d
00000250: 9da0 71bd cbb1 94bd a69f 533d 419b 8c3c
00000260: ae01 783d 2e39 a3bd 85d7 8e3d ef6f 393d
00000270: 4bb4 e3bb c023 8b3d 7a9f 19bc 2992 b03c
00000280: 149d 9abc 585e 3f3d bc01 c1bc b6f0 963c
00000290: 97bf 9dbc 9095 95bc 9b07 a6bc d5f8 38bd
000002a0: 2a75 75bd 6678 34bd 0e3b 7ebd f25c 0ebd
000002b0: 9e62 1ebd 1c5d 033d d5eb e43b 7b67 b93c
000002c0: 2f90 3f3d 140c b13c db35 393d 7427 3b3d
000002d0: 969c 00bd b979 54bd 8ec5 a63c f65d 8d3c
000002e0: 1649 2cbd 4e99 753d 4c3c 8b3c 1667 8f3c
000002f0: 2938 b5bb 199a 543b 8d25 aebd 992d b53d
00000300: 59ad 91bc 69e0 ed3d ea20 d03b 25f6 ef3d
00000310: 24f6 b43d 486b e8bb 942f a2bd 97d6 8c3d
00000320: d54e 803d f78e 333d 0952 66bc d734 ec3c
00000330: d8b7 103d 8065 78bd e076 21bd c91b 103d
00000340: b7ae 87bd 7d66 1a3d 96f5 4f3d 6328 47bd
00000350: 36ed 4fbd 73ef b7bc 7861 a03d b293 c63d
00000360: df37 4fbd 6b81 4bbd f9eb 82bd 3a6b d83c
00000370: 689d 9f3c 8a06 103d 3e2d 823d 71a0 863d
00000380: b5a1 37bd c75a e23d 6358 5b3d 1284 6cbd
00000390: ffde aabc 2fa9 68bc c29b ed3d f5ad 12bd
000003a0: b614 84bd 0290 8fbc c2c1 0bbd 0500 753d
000003b0: 285c 3dbd 5d9c bf3a cf28 563c 9891 aebb
000003c0: ab01 0c3b 2808 7b3d 142b 8a3d fbcf 6b3d
000003d0: 281c 7abd 7584 383c becb be3d 5eb2 283d
000003e0: cf0d 533c 9a71 13bd 6812 973d a432 3a3d
000003f0: 87f2 623d 7f39 6fbd a147 6d3d e61c 813c
-0.01898216 -0.024988575 -0.066665374 0.061460383 -0.037899286 -0.03298065 0.1044153 0.09629327
0.06743553 0.014832309 0.027099788 -0.025762402 0.08142029 -0.04428149 0.047303677 -0.003852112
0.06719879 -0.06466129 0.03875088 -0.016781118 0.00079992984 -0.024408646 0.006112739 0.057692006
0.102328666 0.03656089 0.08471952 0.01890801 -0.04056314 0.022076428 0.111441776 0.10829285
-0.03726634 0.069013074 0.11933004 0.11476894 -0.024789937 0.042909753 0.07501183 -0.020682726
0.042583857 0.121285155 0.067683205 0.025176764 0.0030124704 0.11001316 -0.059197582 -0.009503216
0.027504664 -0.017275676 0.07306966 0.1012614 0.06865938 -0.018273123 -0.010709715 -0.01928963
0.07042015 -0.05158047 0.026934873 0.05030866 0.045258354 -0.02151016 -0.016512409 -0.013586944
0.07841039 -0.0073509915 0.026213236 0.03782095 -0.07047145 0.020919608 0.0131156435 0.07309363
0.061737344 0.11152465 -0.02543597 0.048718676 -0.0073175174 0.0049767154 0.0021786618 -0.0554331
0.026056975 0.044442028 -0.03860278 0.07246328 0.02521161 -0.05832247 0.07085583 0.010101214
0.01316697 -0.0049619377 0.08955261 0.06540371 -0.023287518 0.09410186 -0.025222473 -0.0040869773
0.08805153 0.12377916 0.036685467 -0.0440395 0.08048583 0.011047485 -0.021954473 0.117101885
-0.010158875 0.022634923 0.042972833 0.02600561 0.03126082 -0.028659426 0.08878315 0.00064823526
-0.050596632 0.0032841302 0.09454297 0.10423438 0.014790259 0.044802424 0.11519978 0.07639796
0.10629338 0.058137838 -0.0129583385 -0.03325446 -0.0482452 0.056826364 0.07449045 0.06856916
-0.04614358 0.112793826 0.05057955 -0.056861166 0.06915458 -0.02732239 0.029303052 0.058780972
-0.05137396 0.100489184 0.03872554 -0.061649214 0.004364088 0.025771074 0.03685659 0.036625464
0.07781327 0.031777278 0.029051483 0.1074237 -0.058991063 -0.07260474 0.051665924 0.017163875
0.060548477 -0.079698905 0.06974701 0.045272764 -0.006948983 0.06793928 -0.009376401 0.02155407
-0.018873729 0.046720833 -0.023560397 0.018425327 -0.019256396 -0.018259794 -0.020267298 -0.04515918
-0.05992619 -0.044060133 -0.062068038 -0.03475661 -0.038668267 0.032071218 0.006986121 0.022632351
0.046768364 0.021612205 0.045217376 0.045691922 -0.031399332 -0.051873896 0.020357873 0.017256718
-0.042061888 0.059960656 0.016996525 0.01750521 -0.0055303765 0.0032440482 -0.08503256 0.08846588
-0.017782854 0.116150685 0.00635158 0.1171687 0.0883601 -0.007092867 -0.07919231 0.06876867
0.06265036 0.043837514 -0.014057645 0.02883379 0.035331577 -0.060643673 -0.03942001 0.035182748
-0.06625121 0.037695397 0.05077132 -0.0486225 -0.05076333 -0.022453045 0.07831091 0.096961394
-0.050590392 -0.04968397 -0.063926645 0.026418317 0.019484237 0.035162486 0.063562855 0.065735705
-0.04483195 0.11052471 0.05355109 -0.05774314 -0.020858286 -0.014200493 0.11601974 -0.03581043
-0.06449263 -0.017524723 -0.03412033 0.05981447 -0.046230465 0.0014618743 0.013071253 -0.0053274147
0.00213633 0.061287075 0.06746498 0.057571393 -0.06106201 0.011262049 0.093162045 0.04118573
0.01288171 -0.03599701 0.073765576 0.04545845 0.055407073 -0.058404442 0.05792964 0.01576085

lstm.bias_hh_l0 f4 [512]
00000000: e7fe 7abd 33dc b43d 2f6a 603d d5b5 97bc
00000010: da4e cd3d 9a33 16bc 8e48 f13c 3d94 a53d
00000020: 1b73 0d3e 385e 383c 901a b53d 0bc5 0d3c
00000030: 430b ed3d e127 a83d 1bc4 a93c 6468 7d3d
00000040: 36dd a83d 9d59 993d aeec 143d bc6f ecbc
00000050: 7bae a3bc 8619 e23c 58cd c7bc f1cf 833c
00000060: 6551 7bbc 39ea 74bd a49b 4c3d a798 2e3d
00000070: c940 8cbc 7bfc 5a3d 5750 1a3d 686c bd3d
00000080: b3a2 ba3c 27db 7f3b 59e1 e63d 4d72 4a3d
00000090: 8986 953d 88a6 1cbd 03a2 c3bc c4a3 c43d
000000a0: 7d71 98bc d7b8 3ebd 8c18 463d 9cc8 9d3c
000000b0: d476 db3d 05d4 d13c a491 4fbd 3b36 063e
000000c0: adcb a13d 6820 8b3c 1d24 9cbc 9e3f 973d
000000d0: 30c9 c13d d245 553d 88fa 08bc 9e9d 033d
000000e0: 1c53 86bc 1783 af3d 4faf ce3b 2034 e53d
000000f0: e20c 8f3d a16a b43d 8008 a5bb 150c 5a3c
00000100: f3b8 943d fddb a73c 59e3 2dbd 8eb6 ad3d
00000110: a846 8dbc 1244 c23c 33f3 df3a 06ed 093e
00000120: 4335 e83c ab19 afbc ed2a 653c 7b37 89bd
00000130: 60b2 a53d c021 86bc 0334 6cbc 49d5 62bd
00000140: f3fe cd3d 6ca4 0e3c 3480 9c3d 4eef 98bc
00000150: c55d d6bc c416 61bc 68f0 663d cbe7 c03d
00000160: b3ee 693d 6e31 8bbc 0899 b23b a9aa b53d
00000170: 73a0 97bc eeca 0a3b f7b8 2cbc 3aae 3fbd
00000180: 7147 b2bb 968c 253c 022b 5a3d 1b05 ae3d
00000190: 2b8f 233c e4b4 bf3d bfef b9bc 99da 8c3d
000001a0: 761a 883d 1ced cc3d 83b6 2f3d a83e 51bc
000001b0: 9c99 0a3e 09b7 953d c114 853d e70b 6e3d
000001c0: 8b53 0dbd 24ce ffbc 7248 0c3e 1888 16bd
000001d0: 55a7 273d 500f d63d 0799 cc3d b0a5 b63d
000001e0: 8090 003d 752c b23d 420d 93bb c631 f03d
000001f0: b4a1 dd3c 57f8 c53d c6c8 4abd cd85 54bd
00000200: 9402 59bd eedf 023c 50b7 b8bb f0ea 003d
00000210: 9812 d93d 895d b23d 4470 ac3d 95ec f8bb
00000220: 3361 043b feb2 4f3d 9ba4 423d a33f a73c
00000230: a3db 403d 8794 5b3d f53e 53bd c137 753d
00000240: 1d0c 953d 7429 20bd 2c77 2bbd 5a16 3f3d
00000250: c37a 85bd 2934 433d 797f 05bd ac30 1c3d
00000260: 271b 3d3c 76eb cbbc 7ed7 aebd 85a5 17bd
00000270: 1d08 58ba 5916 3b3d 9d5b 94bd 8ffa ee3d
00000280: fead 953d 3e1d 92bd 85be 9f3d 1597 c53d
00000290: 76ad abbd 7dcb 423d 02ff 02bd bde8 18bd
000002a0: 1800 44bd 144f b03c 4e2b 513d f607 88bd
000002b0: d647 a23c f9a9 c53d 9775 7a3d 696e c2bc
000002c0: e1c8 20bd 8266 853d 3129 86bd dd71 1abd
000002d0: e68b 87bd c0b0 8cbd 9356 ecbc 8019 083e
000002e0: 9a21 723d b027 febc 835b 0bbd fda6 233d
000002f0: af85 a53c aea8 3dbd 62ca 32bd d7d9 2d3d
00000300: fdb0 20bd 3194 e33d 647c 25bd cdd6 0fbb
00000310: 1ca7 5aba c959 b03d 1465 41bd 02e2 1e3d
00000320: 9419 4abd 8041 c33d 3908 f73c c55b 88bd
00000330: b4e7 89bc 1dd4 8fbd edcf ee3c 2389 223d
00000340: e0d7 8b3d 8726 463d 6497 8a3d 0e52 643d
00000350: 9d46 353d 3a6d a6bb 6c79 f8bc b077 d83d
00000360: 14ca 403d 89c7 813d 9c2b 4ebd 10ef 2c3d
00000370: 2775 7ebd b5ba 853d 5b8e 033c b5aa a13d
00000380: e68c 85bd 1529 223d 2ac0 263d 7a38 463d
00000390: 3ae2 763d d595 56bd 1c69 003e efa3 b5bd
000003a0: 1157 50bd 21d5 2a3d 2434 7b3d 54a7 d23b
000003b0: ac64 cdbc 3d58 763b 27ec 81bd ee09 35bc
000003c0: cc83 8fbd f9e3 be3d ca01 cf3d 46e6 efbc
000003d0: 6781 273d 6da4 5a3d f93c 71bc cb2e d03d
000003e0: 7b32 683d ace6 1dbc 40f0 1a3d 492c 763d
000003f0: 28bf 54bd 2811 3ebc f3f4 b63d 73d0 293d
-0.06127825 0.08831062 0.054788765 -0.018519321 0.10024805 -0.009167576 0.029453542 0.08084915
0.1381344 0.011252932 0.08842957 0.008652936 0.115744136 0.08210731 0.020723393 0.061867133
0.08245318 0.074877955 0.036358528 -0.028861873 -0.01998066 0.027600061 -0.024389908 0.016090365
-0.01533923 -0.059793685 0.049953118 0.04262605 -0.017120736 0.05346344 0.037674274 0.092491925
0.02278266 0.0039040537 0.112734504 0.049425412 0.07301051 -0.038244754 -0.023880964 0.09601548
-0.018608803 -0.046562996 0.048363253 0.019260697 0.10716024 0.025613794 -0.050676003 0.13106625
0.07900176 0.016983226 -0.019060189 0.07385181 0.094622016 0.05206854 -0.008360513 0.032132737
-0.016397052 0.08569925 0.0063075195 0.11191583 0.06984879 0.088094 -0.0050364137 0.013308545
0.07261839 0.02049064 -0.042453144 0.08482085 -0.017245606 0.0237141 0.0017086029 0.13469324
0.02834571 -0.021374544 0.013987285 -0.06700035 0.08090663 -0.016373515 -0.014416697 -0.055379186
0.10058393 0.008706193 0.0764164 -0.018668797 -0.02616776 -0.013738338 0.056381613 0.09419211
0.057112407 -0.016991343 0.0054503717 0.088704415 -0.018509125 0.0021178084 -0.010542146 -0.046797015
-0.0054406454 0.010104319 0.05326367 0.084970675 0.009982864 0.09360674 -0.022697328 0.06877632
0.06645672 0.100061625 0.042898666 -0.012771286 0.1353516 0.07310302 0.06498099 0.05811682
-0.0345035 -0.031226225 0.1369951 -0.036750883 0.040931065 0.104521394 0.09990125 0.08918321
0.031387806 0.08699886 -0.0044876644 0.117282435 0.027054645 0.09666508 -0.04950788 -0.051885415
-0.052980974 0.007987959 -0.005637087 0.031474054 0.105992496 0.08709247 0.084198505 -0.007596562
0.0020199537 0.05070781 0.04752026 0.020416087 0.047084462 0.053608444 -0.051573712 0.059867624
0.07277701 -0.039102033 -0.041861698 0.046652175 -0.065175556 0.047657166 -0.03259227 0.038132355
0.011542118 -0.02489255 -0.085371956 -0.037023086 -0.0008240955 0.04567561 -0.07244036 0.11668884
0.07308577 -0.07134484 0.078000106 0.09647957 -0.083826944 0.047557343 -0.031981476 -0.03733133
-0.047851652 0.021522082 0.05106669 -0.066421434 0.019809645 0.0965156 0.0611473 -0.023734288
-0.039254073 0.065136924 -0.065508254 -0.037706245 -0.066184804 -0.0686965 -0.028849876 0.13290977
0.059114076 -0.031024784 -0.03402282 0.039954174 0.020205347 -0.046303444 -0.04365004 0.042444076
-0.03923129 0.1111225 -0.04040183 -0.00219481 -0.0008340941 0.08610875 -0.047215536 0.038789757
-0.0493408 0.095339775 0.030155288 -0.06658129 -0.016834117 -0.07022879 0.029151881 0.039681565
0.06828284 0.048376586 0.06767157 0.055742316 0.044256795 -0.005078939 -0.030331336 0.105697036
0.047067717 0.063368864 -0.050334558 0.042220175 -0.062123444 0.06529752 0.008029546 0.07893888
-0.06521015 0.03958996 0.040710606 0.048393704 0.06027434 -0.052388985 0.12540096 -0.088691585
-0.050864283 0.04170716 0.061329022 0.0064286385 -0.025072418 0.0037589215 -0.063438706 -0.011049731
-0.0700756 0.09320826 0.10107763 -0.029284608 0.040894892 0.053379465 -0.01472401 0.10165175
0.056688767 -0.009637516 0.037826777 0.060100827 -0.051940113 -0.01160077 0.08933439 0.04145856

fc.weight f4 [57, 128]
00000000: 2fd6 07bd 5b26 3c3c 9981 883d 19c1 dfbd
00000010: bea6 223e 65d3 c23d 9047 1d3e 7594 05bd
00000020: aab0 003e f7ca 8f3c 593a 5a3d a5cf be3d
00000030: 03e0 6cbd 00f9 05be df8a 06be 0a58 62bb
00000040: 2bcc d63c 3805 f7bc edf2 bc3d 8b00 e3bd
00000050: 184a 4ebd abad 043d 112e e43d 38a4 06be
00000060: de23 88bd 2152 173d f23b 643d 46d1 be3c
00000070: 61c9 7e3d 7bbf efbd 12d2 22be 2a38 633d
00000080: eb69 d13c 50e5 073e 4797 443c 809b febb
00000090: 0b7c 10be 7497 be3c 55c1 1e3e b43a c6bd
000000a0: 14fb e33a a14f 78bd c7ff a93c f585 c7bd
000000b0: 930e 6fbd 5a94 8e3c 51f0 843d 37d0 c0bd
000000c0: 889c 19bd 12c0 b13c cc65 d8bd 3591 33bd
000000d0: 6b83 643c efd9 763d 2351 1abe 3334 bfbd
000000e0: a99a 02bc 625a acbd 8ca4 82bd acfd 063c
000000f0: dfca 713c 814f 8e3c d85e 77bd 7bed d539
00000100: d5d4 91bc 4c41 90bd 2f4a 093c 892b b83d
00000110: 24f3 dcbc 4c6e adbd 7ae4 8d3d ab63 d03d
00000120: e840 653d 9bbb 1ebd a8d6 113c fb6b 0abd
00000130: 0ad4 203c 6829 ce3d 61f6 e0bd 82d9 e4bd
00000140: 5613 91bb e18c 8bbd 361e 11bd a734 d73c
00000150: e48c ad3c 290e 93bd 6232 4bbd fdda f9bd
00000160: 5d80 80bd eff5 acbd d8eb afbc 89e4 d93c
00000170: eae6 923d ed3b b13d 9017 753d d072 bf3d
00000180: 1ad1 f3bd 4736 1e3e a278 d63d 52f8 99bd
00000190: 9946 0ebe c3b7 3a3d 4e16 0f3e 0230 053e
000001a0: 79cf 15bd efba 183d 49de 5a3d 7aad e43d
000001b0: 034e 703d 5562 803d 7108 d8bd 7ec2 d03d
000001c0: 4986 393d a99d a13d f267 d63d cd03 02be
000001d0: 3c77 0fbe 6650 edbd 5739 0cbc efdc ddbc
000001e0: fefa 04be c25d 843d 5562 0f3d 03e1 963d
000001f0: 50dd 89ba 0ac2 ae3d c5d4 acba dd51 ee3c
00000200: 5963 f6bc 5fc6 27bd 8b3c 24bd aca3 853d
00000210: e605 a0bd 4423 bc3d 36f4 bdbd 8d64 b3bc
00000220: 2f39 ba3d 4b6a 1c3d c67a fbbc 5796 373d
00000230: 49c2 1c3d b70a acbc 36da 08bd fcd6 1d3d
00000240: e343 653d eb36 953c 1dd8 3bbc 8576 793d
00000250: 6497 e1bb 168c 323d 2763 1d3d 29b6 71bd
00000260: 5f0a abbd 99c3 873d e050 a23d 182c a1bd
00000270: c634 5dbd 70fe d43c 280f 873d a098 9bbd
00000280: d064 ae3d 6352 82bd 3122 97bd 6c5f 463d
00000290: 644f 81bd 69de 91bd 9d2d 1abc e5d2 8a3c
000002a0: 5e0e 783d d175 f13c 6f12 873d 844e 9b3d
000002b0: cf7f cfbb 9a4e cd3c d813 a13c cf7a bb3d
000002c0: 2700 583d 5141 0abc a6f8 35bd 7c3e 393d
000002d0: bf38 863c c0b7 a03d 6e39 78bd d3bf 83bd
000002e0: cb4e 753d d41a 94bd b0f2 b1bc aa9c 99bd
000002f0: 2971 0cbc e700 bb3c 6478 0b3d b84e 70bd
00000300: 8c65 923d b477 8bbd 30a4 71bd b98f 8dbd
00000310: 82fd 9fbd 5b64 c13c 4fc0 983d b78a b0bc
00000320: c3bb 8a3d c50c 83bc aa59 f8bc d56b b43d
00000330: 2491 8fbd f35b 243d 5d74 5f3d f952 9e3b
00000340: 3640 59bd 08f8 9ebd a571 f53b f249 61bb
00000350: b5f5 1f3d 69c2 8bbc cda0 2abc 970f 963d
00000360: c1ee 0e3d a728 f0bc 10c2 d33c d563 0dbd
00000370: 630d 323d ab89 b1bd f749 29bd 1d65 c7bd
00000380: 0793 38bd 1368 84bd cf04 87bd e41a 6a3d
00000390: 8a4f b3bc e46d 443d 8be8 9cbd ae81 0c3d
000003a0: 7121 89ba d304 86bd 8272 6cbd 1d9f 72bd
000003b0: 68dc e5bc 951d 6cbd 4d13 f83c c737 4dbd
000003c0: 4554 843d e813 b73a 65bf a8bd 3400 903d
000003d0: 60a6 3e3c 2500 e1bc 39da 9a3c 4f6f ec3c
000003e0: 619d b6bb d54e 22bd be17 9fbd 0791 84bd
000003f0: 48fa b3b9 d931 54bd a189 8abd 25bb 8a3d
-0.033163246 0.011483754 0.06665344 -0.10925502 0.1588392 0.095129766 0.1535933 -0.032612283
0.12567392 0.017552836 0.0532783 0.09316949 -0.05783082 -0.13083267 -0.13138913 -0.0034537339
0.026220402 -0.030153856 0.09226022 -0.11084088 -0.05036363 0.032392185 0.11141599 -0.13148582
-0.06647466 0.03694356 0.05572123 0.023293149 0.06220377 -0.11706444 -0.15900448 0.055473484
0.025563201 0.1327107 0.011998958 -0.007770002 -0.14109819 0.023265578 0.15503438 -0.096791655
0.0017393553 -0.060622815 0.020751847 -0.09742347 -0.05836351 0.017404724 0.06491149 -0.09414714
-0.037502795 0.021698032 -0.10566291 -0.043839652 0.013947348 0.06026643 -0.15070014 -0.09336128
-0.007971444 -0.08415677 -0.06379041 0.008239191 0.014757841 0.017371895 -0.060393184 0.00040803463
-0.017801682 -0.070437044 0.008379503 0.08992679 -0.026971407 -0.08468303 0.06928344 0.1017526
0.055970103 -0.038753133 0.008901276 -0.033794384 0.009816179 0.10066491 -0.10984493 -0.11174299
-0.004427354 -0.0681398 -0.035429202 0.026270224 0.021185346 -0.07180435 -0.049608596 -0.12199972
-0.06274483 -0.084453456 -0.021474764 0.026598232 0.071729496 0.08654008 0.059836924 0.093480706
-0.11905117 0.15450393 0.10472228 -0.075180665 -0.13894118 0.045585405 0.13973352 0.13006595
-0.036574814 0.03728765 0.053434644 0.111659005 0.058668148 0.06268755 -0.10548485 0.101933464
0.04529408 0.078913994 0.10469045 -0.12696762 -0.14010328 -0.115876004 -0.008558593 -0.027082888
-0.12986371 0.064631954 0.035005886 0.07367136 -0.0010518227 0.08533104 -0.0013185969 0.02909177
-0.03007667 -0.040960666 -0.0400968 0.065253586 -0.07813625 0.09186414 -0.09275095 -0.021898532
0.09092938 0.038187306 -0.030698191 0.04482111 0.038271222 -0.021001203 -0.033411227 0.038535103
0.055972945 0.018214663 -0.0114651 0.060904045 -0.0068845022 0.043590628 0.038424637 -0.059011612
-0.083515875 0.06629104 0.07925582 -0.07869738 -0.054005407 0.026000232 0.06594688 -0.0759747
0.08515322 -0.0636337 -0.07379568 0.048430845 -0.06313971 -0.071224995 -0.009410289 0.016946265
0.060560577 0.029475125 0.06595313 0.07583335 -0.0063323746 0.025061894 0.019662783 0.09154283
0.05273452 -0.008438424 -0.044426583 0.045225605 0.01638448 0.078475475 -0.060601644 -0.06433072
0.059889596 -0.072316796 -0.021722168 -0.075005844 -0.008571901 0.022827579 0.03405036 -0.058668822
0.07148275 -0.06809941 -0.058994472 -0.069121785 -0.07812025 0.023607424 0.07458555 -0.02155052
0.06774094 -0.0159973 -0.030316193 0.0880963 -0.07010105 0.040126752 0.054554332 0.0048316685
-0.053039752 -0.07762152 0.007490354 -0.003437635 0.039052684 -0.017060475 -0.010414314 0.07327192
0.034895662 -0.02931626 0.025849372 -0.034519035 0.043469798 -0.08668836 -0.041330304 -0.09736083
-0.04506209 -0.06465163 -0.06592714 0.05715455 -0.021888513 0.047956362 -0.076615416 0.03430336
-0.0010462237 -0.06543889 -0.05772639 -0.059233773 -0.0280592 -0.0576454 0.03028264 -0.05010202
0.06461386 0.0013967725 -0.082396306 0.07031289 0.011636347 -0.02746589 0.018902885 0.02886167
-0.0055729602 -0.03962596 -0.077682 -0.06472974 -0.00034328015 -0.05180535 -0.06764532 0.06773976

fc.bias f4 [57]
00000000: b8ee 12be 21a7 a23c ba49 b63c a5b9 c4bd
00000010: d3ee 6c3d b783 463c bec5 113e a00a 16bc
00000020: 8ffe 973d 7fba f0bc 094e e8bd 310d 92bd
00000030: 4c8b f7bd 8f50 8bbc cb20 bbbb 4165 5fbd
00000040: 487b 04be 3c78 10be 660a b6bc ced2 2ebc
00000050: 74c1 abbc 5555 84bc e16b bcbd 4193 e5bd
00000060: 1e41 0fbd 34dd 23bc f011 17bd aef8 d7bd
00000070: 1aa5 fcbd b9dc b4bd 1b3b 11be 7a30 2b3c
00000080: 9d54 ddbc fea0 e63c 8597 ebbd 20dd c33d
00000090: be50 6dbd 4f7e 493c 3bc1 333b 91ab 69bc
000000a0: bc78 913c 50da 10bd 27c4 4bbd b004 a4bb
000000b0: ed1a 9dbd 260e 1ebd d1e0 b739 9f60 2c3d
000000c0: 7f8d 06bd 46f2 4bbb ca5f aabd bf9b 343a
000000d0: a7f6 2b3d 7978 003c d294 d23c 3fd2 91bc
000000e0: 91e5 db3c
-0.14348876 0.019855084 0.022251952 -0.096057214 0.057844948 0.012116364 0.14235589 -0.009157807
0.074216 -0.029385803 -0.11343009 -0.07131422 -0.12087116 -0.017006187 -0.0057106963 -0.054539923
-0.12937653 -0.14108366 -0.022221755 -0.010670377 -0.02096627 -0.01615397 -0.09200264 -0.11209727
-0.03497421 -0.010001469 -0.03688234 -0.10545479 -0.12336178 -0.08831162 -0.14182703 0.010448569
-0.027017886 0.028152939 -0.115035094 0.095636606 -0.05793833 0.012298181 0.0027428407 -0.014262096
0.017757766 -0.03536445 -0.049747612 -0.0050054416 -0.07671151 -0.03858771 0.0003507198 0.042084333
-0.032849785 -0.0031119748 -0.083190516 0.0006889663 0.041983273 0.007841223 0.025705729 -0.017800448
0.026842864
